==========================================================================================
Layer (type:depth-idx)                   Output Shape              Param #
==========================================================================================
├─PatchEmbed: 1-1                        [-1, 576, 768]            --
|    └─Conv2d: 2-1                       [-1, 768, 24, 24]         590,592
├─Dropout: 1-2                           [-1, 577, 768]            --
├─ModuleList: 1                          []                        --
|    └─Block: 2-2                        [-1, 577, 768]            --
|    |    └─LayerNorm: 3-1               [-1, 577, 768]            1,536
|    |    └─Attention: 3-2               [-1, 577, 768]            2,362,368
|    |    └─LayerNorm: 3-3               [-1, 577, 768]            1,536
|    |    └─MLP: 3-4                     [-1, 577, 768]            4,722,432
|    └─Block: 2-3                        [-1, 577, 768]            --
|    |    └─LayerNorm: 3-5               [-1, 577, 768]            1,536
|    |    └─Attention: 3-6               [-1, 577, 768]            2,362,368
|    |    └─LayerNorm: 3-7               [-1, 577, 768]            1,536
|    |    └─MLP: 3-8                     [-1, 577, 768]            4,722,432
|    └─Block: 2-4                        [-1, 577, 768]            --
|    |    └─LayerNorm: 3-9               [-1, 577, 768]            1,536
|    |    └─Attention: 3-10              [-1, 577, 768]            2,362,368
|    |    └─LayerNorm: 3-11              [-1, 577, 768]            1,536
|    |    └─MLP: 3-12                    [-1, 577, 768]            4,722,432
|    └─Block: 2-5                        [-1, 577, 768]            --
|    |    └─LayerNorm: 3-13              [-1, 577, 768]            1,536
|    |    └─Attention: 3-14              [-1, 577, 768]            2,362,368
|    |    └─LayerNorm: 3-15              [-1, 577, 768]            1,536
|    |    └─MLP: 3-16                    [-1, 577, 768]            4,722,432
|    └─Block: 2-6                        [-1, 577, 768]            --
|    |    └─LayerNorm: 3-17              [-1, 577, 768]            1,536
|    |    └─Attention: 3-18              [-1, 577, 768]            2,362,368
|    |    └─LayerNorm: 3-19              [-1, 577, 768]            1,536
|    |    └─MLP: 3-20                    [-1, 577, 768]            4,722,432
|    └─Block: 2-7                        [-1, 577, 768]            --
|    |    └─LayerNorm: 3-21              [-1, 577, 768]            1,536
|    |    └─Attention: 3-22              [-1, 577, 768]            2,362,368
|    |    └─LayerNorm: 3-23              [-1, 577, 768]            1,536
|    |    └─MLP: 3-24                    [-1, 577, 768]            4,722,432
|    └─Block: 2-8                        [-1, 577, 768]            --
|    |    └─LayerNorm: 3-25              [-1, 577, 768]            1,536
|    |    └─Attention: 3-26              [-1, 577, 768]            2,362,368
|    |    └─LayerNorm: 3-27              [-1, 577, 768]            1,536
|    |    └─MLP: 3-28                    [-1, 577, 768]            4,722,432
|    └─Block: 2-9                        [-1, 577, 768]            --
|    |    └─LayerNorm: 3-29              [-1, 577, 768]            1,536
|    |    └─Attention: 3-30              [-1, 577, 768]            2,362,368
|    |    └─LayerNorm: 3-31              [-1, 577, 768]            1,536
|    |    └─MLP: 3-32                    [-1, 577, 768]            4,722,432
|    └─Block: 2-10                       [-1, 577, 768]            --
|    |    └─LayerNorm: 3-33              [-1, 577, 768]            1,536
|    |    └─Attention: 3-34              [-1, 577, 768]            2,362,368
|    |    └─LayerNorm: 3-35              [-1, 577, 768]            1,536
|    |    └─MLP: 3-36                    [-1, 577, 768]            4,722,432
|    └─Block: 2-11                       [-1, 577, 768]            --
|    |    └─LayerNorm: 3-37              [-1, 577, 768]            1,536
|    |    └─Attention: 3-38              [-1, 577, 768]            2,362,368
|    |    └─LayerNorm: 3-39              [-1, 577, 768]            1,536
|    |    └─MLP: 3-40                    [-1, 577, 768]            4,722,432
|    └─Block: 2-12                       [-1, 577, 768]            --
|    |    └─LayerNorm: 3-41              [-1, 577, 768]            1,536
|    |    └─Attention: 3-42              [-1, 577, 768]            2,362,368
|    |    └─LayerNorm: 3-43              [-1, 577, 768]            1,536
|    |    └─MLP: 3-44                    [-1, 577, 768]            4,722,432
|    └─Block: 2-13                       [-1, 577, 768]            --
|    |    └─LayerNorm: 3-45              [-1, 577, 768]            1,536
|    |    └─Attention: 3-46              [-1, 577, 768]            2,362,368
|    |    └─LayerNorm: 3-47              [-1, 577, 768]            1,536
|    |    └─MLP: 3-48                    [-1, 577, 768]            4,722,432
├─LayerNorm: 1-3                         [-1, 577, 768]            1,536
├─Linear: 1-4                            [-1, 1000]                769,000
==========================================================================================
Total params: 86,415,592
Trainable params: 86,415,592
Non-trainable params: 0
Total mult-adds (M): 595.94
==========================================================================================
Input size (MB): 1.69
Forward/backward pass size (MB): 453.04
Params size (MB): 329.65
Estimated Total Size (MB): 784.37
==========================================================================================
==========================================================================================
Layer (type:depth-idx)                   Output Shape              Param #
==========================================================================================
├─PatchEmbed: 1-1                        [-1, 576, 768]            --
|    └─Conv2d: 2-1                       [-1, 768, 24, 24]         590,592
├─Dropout: 1-2                           [-1, 577, 768]            --
├─ModuleList: 1                          []                        --
|    └─Block: 2-2                        [-1, 577, 768]            --
|    |    └─LayerNorm: 3-1               [-1, 577, 768]            1,536
|    |    └─Attention: 3-2               [-1, 577, 768]            2,362,368
|    |    └─LayerNorm: 3-3               [-1, 577, 768]            1,536
|    |    └─MLP: 3-4                     [-1, 577, 768]            4,722,432
|    └─Block: 2-3                        [-1, 577, 768]            --
|    |    └─LayerNorm: 3-5               [-1, 577, 768]            1,536
|    |    └─Attention: 3-6               [-1, 577, 768]            2,362,368
|    |    └─LayerNorm: 3-7               [-1, 577, 768]            1,536
|    |    └─MLP: 3-8                     [-1, 577, 768]            4,722,432
|    └─Block: 2-4                        [-1, 577, 768]            --
|    |    └─LayerNorm: 3-9               [-1, 577, 768]            1,536
|    |    └─Attention: 3-10              [-1, 577, 768]            2,362,368
|    |    └─LayerNorm: 3-11              [-1, 577, 768]            1,536
|    |    └─MLP: 3-12                    [-1, 577, 768]            4,722,432
|    └─Block: 2-5                        [-1, 577, 768]            --
|    |    └─LayerNorm: 3-13              [-1, 577, 768]            1,536
|    |    └─Attention: 3-14              [-1, 577, 768]            2,362,368
|    |    └─LayerNorm: 3-15              [-1, 577, 768]            1,536
|    |    └─MLP: 3-16                    [-1, 577, 768]            4,722,432
|    └─Block: 2-6                        [-1, 577, 768]            --
|    |    └─LayerNorm: 3-17              [-1, 577, 768]            1,536
|    |    └─Attention: 3-18              [-1, 577, 768]            2,362,368
|    |    └─LayerNorm: 3-19              [-1, 577, 768]            1,536
|    |    └─MLP: 3-20                    [-1, 577, 768]            4,722,432
|    └─Block: 2-7                        [-1, 577, 768]            --
|    |    └─LayerNorm: 3-21              [-1, 577, 768]            1,536
|    |    └─Attention: 3-22              [-1, 577, 768]            2,362,368
|    |    └─LayerNorm: 3-23              [-1, 577, 768]            1,536
|    |    └─MLP: 3-24                    [-1, 577, 768]            4,722,432
|    └─Block: 2-8                        [-1, 577, 768]            --
|    |    └─LayerNorm: 3-25              [-1, 577, 768]            1,536
|    |    └─Attention: 3-26              [-1, 577, 768]            2,362,368
|    |    └─LayerNorm: 3-27              [-1, 577, 768]            1,536
|    |    └─MLP: 3-28                    [-1, 577, 768]            4,722,432
|    └─Block: 2-9                        [-1, 577, 768]            --
|    |    └─LayerNorm: 3-29              [-1, 577, 768]            1,536
|    |    └─Attention: 3-30              [-1, 577, 768]            2,362,368
|    |    └─LayerNorm: 3-31              [-1, 577, 768]            1,536
|    |    └─MLP: 3-32                    [-1, 577, 768]            4,722,432
|    └─Block: 2-10                       [-1, 577, 768]            --
|    |    └─LayerNorm: 3-33              [-1, 577, 768]            1,536
|    |    └─Attention: 3-34              [-1, 577, 768]            2,362,368
|    |    └─LayerNorm: 3-35              [-1, 577, 768]            1,536
|    |    └─MLP: 3-36                    [-1, 577, 768]            4,722,432
|    └─Block: 2-11                       [-1, 577, 768]            --
|    |    └─LayerNorm: 3-37              [-1, 577, 768]            1,536
|    |    └─Attention: 3-38              [-1, 577, 768]            2,362,368
|    |    └─LayerNorm: 3-39              [-1, 577, 768]            1,536
|    |    └─MLP: 3-40                    [-1, 577, 768]            4,722,432
|    └─Block: 2-12                       [-1, 577, 768]            --
|    |    └─LayerNorm: 3-41              [-1, 577, 768]            1,536
|    |    └─Attention: 3-42              [-1, 577, 768]            2,362,368
|    |    └─LayerNorm: 3-43              [-1, 577, 768]            1,536
|    |    └─MLP: 3-44                    [-1, 577, 768]            4,722,432
|    └─Block: 2-13                       [-1, 577, 768]            --
|    |    └─LayerNorm: 3-45              [-1, 577, 768]            1,536
|    |    └─Attention: 3-46              [-1, 577, 768]            2,362,368
|    |    └─LayerNorm: 3-47              [-1, 577, 768]            1,536
|    |    └─MLP: 3-48                    [-1, 577, 768]            4,722,432
├─LayerNorm: 1-3                         [-1, 577, 768]            1,536
├─Linear: 1-4                            [-1, 1000]                769,000
==========================================================================================
Total params: 86,415,592
Trainable params: 86,415,592
Non-trainable params: 0
Total mult-adds (M): 595.94
==========================================================================================
Input size (MB): 1.69
Forward/backward pass size (MB): 453.04
Params size (MB): 329.65
Estimated Total Size (MB): 784.37
…
